…
    log: /data0/yuang/HCFlow/results/003_HCFlow_DF2K_x4_rescaling_test
  ]
  is_train: False

23-12-22 01:51:42.860 - INFO: Dataset [GTLQDataset - example] is created.
23-12-22 01:51:42.860 - INFO: Number of test images in [example]: 1
23-12-22 01:51:43.433 - INFO: Network G structure: DataParallel - HCFlowNet_Rescaling, with parameters: 4,396,350
23-12-22 01:51:43.433 - INFO: HCFlowNet_Rescaling(
  (flow): FlowNet(
    (layers): ModuleList(
      (0): HaarDownsampling()
      (1): FlowStep(
        (actnorm): ActNorm2d()
        (affine): AffineCoupling3shift(
          (f): DenseBlock(
            (conv1): Conv2d(3, 32, kernel_size=(3, 3), stride=(1, 1), padding=(1, 1))
            (conv2): Conv2d(35, 32, kernel_size=(3, 3), stride=(1, 1), padding=(1, 1))
            (conv3): Conv2d(67, 32, kernel_size=(3, 3), stride=(1, 1), padding=(1, 1))
            (conv4): Conv2d(99, 32, kernel_size=(3, 3), stride=(1, 1), padding=(1, 1))
            (conv5): Conv2d(131, 18, kernel_size=(3, 3), stride=(1, 1), padding=(1, 1))
            (lrelu): LeakyReLU(negative_slope=0.2, inplace=True)
          )
        )
      )
      (2): FlowStep(
        (actnorm): ActNorm2d()
        (affine): AffineCoupling3shift(
          (f): DenseBlock(
            (conv1): Conv2d(9, 32, kernel_size=(3, 3), stride=(1, 1), padding=(1, 1))
            (conv2): Conv2d(41, 32, kernel_size=(3, 3), stride=(1, 1), padding=(1, 1))
            (conv3): Conv2d(73, 32, kernel_size=(3, 3), stride=(1, 1), padding=(1, 1))
            (conv4): Conv2d(105, 32, kernel_size=(3, 3), stride=(1, 1), padding=(1, 1))
            (conv5): Conv2d(137, 3, kernel_size=(3, 3), stride=(1, 1), padding=(1, 1))
            (lrelu): LeakyReLU(negative_slope=0.2, inplace=True)
          )
        )
      )
      (3): FlowStep(
        (actnorm): ActNorm2d()
        (affine): AffineCoupling3shift(
          (f): DenseBlock(
            (conv1): Conv2d(3, 32, kernel_size=(3, 3), stride=(1, 1), padding=(1, 1))
            (conv2): Conv2d(35, 32, kernel_size=(3, 3), stride=(1, 1), padding=(1, 1))
            (conv3): Conv2d(67, 32, kernel_size=(3, 3), stride=(1, 1), padding=(1, 1))
            (conv4): Conv2d(99, 32, kernel_size=(3, 3), stride=(1, 1), padding=(1, 1))
            (conv5): Conv2d(131, 18, kernel_size=(3, 3), stride=(1, 1), padding=(1, 1))
            (lrelu): LeakyReLU(negative_slope=0.2, inplace=True)
          )
        )
      )
      (4): FlowStep(
        (actnorm): ActNorm2d()
        (affine): AffineCoupling3shift(
          (f): DenseBlock(
            (conv1): Conv2d(9, 32, kernel_size=(3, 3), stride=(1, 1), padding=(1, 1))
            (conv2): Conv2d(41, 32, kernel_size=(3, 3), stride=(1, 1), padding=(1, 1))
            (conv3): Conv2d(73, 32, kernel_size=(3, 3), stride=(1, 1), padding=(1, 1))
            (conv4): Conv2d(105, 32, kernel_size=(3, 3), stride=(1, 1), padding=(1, 1))
            (conv5): Conv2d(137, 3, kernel_size=(3, 3), stride=(1, 1), padding=(1, 1))
            (lrelu): LeakyReLU(negative_slope=0.2, inplace=True)
          )
        )
      )
      (5): FlowStep(
        (actnorm): ActNorm2d()
        (affine): AffineCoupling3shift(
          (f): DenseBlock(
            (conv1): Conv2d(3, 32, kernel_size=(3, 3), stride=(1, 1), padding=(1, 1))
            (conv2): Conv2d(35, 32, kernel_size=(3, 3), stride=(1, 1), padding=(1, 1))
            (conv3): Conv2d(67, 32, kernel_size=(3, 3), stride=(1, 1), padding=(1, 1))
            (conv4): Conv2d(99, 32, kernel_size=(3, 3), stride=(1, 1), padding=(1, 1))
            (conv5): Conv2d(131, 18, kernel_size=(3, 3), stride=(1, 1), padding=(1, 1))
            (lrelu): LeakyReLU(negative_slope=0.2, inplace=True)
          )
        )
      )
      (6): FlowStep(
        (actnorm): ActNorm2d()
        (affine): AffineCoupling3shift(
          (f): DenseBlock(
            (conv1): Conv2d(9, 32, kernel_size=(3, 3), stride=(1, 1), padding=(1, 1))
            (conv2): Conv2d(41, 32, kernel_size=(3, 3), stride=(1, 1), padding=(1, 1))
            (conv3): Conv2d(73, 32, kernel_size=(3, 3), stride=(1, 1), padding=(1, 1))
            (conv4): Conv2d(105, 32, kernel_size=(3, 3), stride=(1, 1), padding=(1, 1))
            (conv5): Conv2d(137, 3, kernel_size=(3, 3), stride=(1, 1), padding=(1, 1))
            (lrelu): LeakyReLU(negative_slope=0.2, inplace=True)
          )
        )
      )
      (7): FlowStep(
        (actnorm): ActNorm2d()
        (affine): AffineCoupling3shift(
          (f): DenseBlock(
            (conv1): Conv2d(3, 32, kernel_size=(3, 3), stride=(1, 1), padding=(1, 1))
            (conv2): Conv2d(35, 32, kernel_size=(3, 3), stride=(1, 1), padding=(1, 1))
            (conv3): Conv2d(67, 32, kernel_size=(3, 3), stride=(1, 1), padding=(1, 1))
            (conv4): Conv2d(99, 32, kernel_size=(3, 3), stride=(1, 1), padding=(1, 1))
            (conv5): Conv2d(131, 18, kernel_size=(3, 3), stride=(1, 1), padding=(1, 1))
            (lrelu): LeakyReLU(negative_slope=0.2, inplace=True)
          )
        )
      )
      (8): FlowStep(
        (actnorm): ActNorm2d()
        (affine): AffineCoupling3shift(
          (f): DenseBlock(
            (conv1): Conv2d(9, 32, kernel_size=(3, 3), stride=(1, 1), padding=(1, 1))
            (conv2): Conv2d(41, 32, kernel_size=(3, 3), stride=(1, 1), padding=(1, 1))
            (conv3): Conv2d(73, 32, kernel_size=(3, 3), stride=(1, 1), padding=(1, 1))
            (conv4): Conv2d(105, 32, kernel_size=(3, 3), stride=(1, 1), padding=(1, 1))
            (conv5): Conv2d(137, 3, kernel_size=(3, 3), stride=(1, 1), padding=(1, 1))
            (lrelu): LeakyReLU(negative_slope=0.2, inplace=True)
          )
        )
      )
      (9): Split()
      (10): HaarDownsampling()
      (11): FlowStep(
        (actnorm): ActNorm2d()
        (affine): AffineCoupling3shift(
          (f): DenseBlock(
            (conv1): Conv2d(3, 32, kernel_size=(3, 3), stride=(1, 1), padding=(1, 1))
            (conv2): Conv2d(35, 32, kernel_size=(3, 3), stride=(1, 1), padding=(1, 1))
            (conv3): Conv2d(67, 32, kernel_size=(3, 3), stride=(1, 1), padding=(1, 1))
            (conv4): Conv2d(99, 32, kernel_size=(3, 3), stride=(1, 1), padding=(1, 1))
            (conv5): Conv2d(131, 42, kernel_size=(3, 3), stride=(1, 1), padding=(1, 1))
            (lrelu): LeakyReLU(negative_slope=0.2, inplace=True)
          )
        )
      )
      (12): FlowStep(
        (actnorm): ActNorm2d()
        (affine): AffineCoupling3shift(
          (f): DenseBlock(
            (conv1): Conv2d(21, 32, kernel_size=(3, 3), stride=(1, 1), padding=(1, 1))
            (conv2): Conv2d(53, 32, kernel_size=(3, 3), stride=(1, 1), padding=(1, 1))
            (conv3): Conv2d(85, 32, kernel_size=(3, 3), stride=(1, 1), padding=(1, 1))
            (conv4): Conv2d(117, 32, kernel_size=(3, 3), stride=(1, 1), padding=(1, 1))
            (conv5): Conv2d(149, 3, kernel_size=(3, 3), stride=(1, 1), padding=(1, 1))
            (lrelu): LeakyReLU(negative_slope=0.2, inplace=True)
          )
        )
      )
      (13): FlowStep(
        (actnorm): ActNorm2d()
        (affine): AffineCoupling3shift(
          (f): DenseBlock(
            (conv1): Conv2d(3, 32, kernel_size=(3, 3), stride=(1, 1), padding=(1, 1))
            (conv2): Conv2d(35, 32, kernel_size=(3, 3), stride=(1, 1), padding=(1, 1))
            (conv3): Conv2d(67, 32, kernel_size=(3, 3), stride=(1, 1), padding=(1, 1))
            (conv4): Conv2d(99, 32, kernel_size=(3, 3), stride=(1, 1), padding=(1, 1))
            (conv5): Conv2d(131, 42, kernel_size=(3, 3), stride=(1, 1), padding=(1, 1))
            (lrelu): LeakyReLU(negative_slope=0.2, inplace=True)
          )
        )
      )
      (14): FlowStep(
        (actnorm): ActNorm2d()
        (affine): AffineCoupling3shift(
          (f): DenseBlock(
            (conv1): Conv2d(21, 32, kernel_size=(3, 3), stride=(1, 1), padding=(1, 1))
            (conv2): Conv2d(53, 32, kernel_size=(3, 3), stride=(1, 1), padding=(1, 1))
            (conv3): Conv2d(85, 32, kernel_size=(3, 3), stride=(1, 1), padding=(1, 1))
            (conv4): Conv2d(117, 32, kernel_size=(3, 3), stride=(1, 1), padding=(1, 1))
            (conv5): Conv2d(149, 3, kernel_size=(3, 3), stride=(1, 1), padding=(1, 1))
            (lrelu): LeakyReLU(negative_slope=0.2, inplace=True)
          )
        )
      )
      (15): FlowStep(
        (actnorm): ActNorm2d()
        (affine): AffineCoupling3shift(
          (f): DenseBlock(
            (conv1): Conv2d(3, 32, kernel_size=(3, 3), stride=(1, 1), padding=(1, 1))
            (conv2): Conv2d(35, 32, kernel_size=(3, 3), stride=(1, 1), padding=(1, 1))
            (conv3): Conv2d(67, 32, kernel_size=(3, 3), stride=(1, 1), padding=(1, 1))
            (conv4): Conv2d(99, 32, kernel_size=(3, 3), stride=(1, 1), padding=(1, 1))
            (conv5): Conv2d(131, 42, kernel_size=(3, 3), stride=(1, 1), padding=(1, 1))
            (lrelu): LeakyReLU(negative_slope=0.2, inplace=True)
          )
        )
      )
      (16): FlowStep(
        (actnorm): ActNorm2d()
        (affine): AffineCoupling3shift(
          (f): DenseBlock(
            (conv1): Conv2d(21, 32, kernel_size=(3, 3), stride=(1, 1), padding=(1, 1))
            (conv2): Conv2d(53, 32, kernel_size=(3, 3), stride=(1, 1), padding=(1, 1))
            (conv3): Conv2d(85, 32, kernel_size=(3, 3), stride=(1, 1), padding=(1, 1))
            (conv4): Conv2d(117, 32, kernel_size=(3, 3), stride=(1, 1), padding=(1, 1))
            (conv5): Conv2d(149, 3, kernel_size=(3, 3), stride=(1, 1), padding=(1, 1))
            (lrelu): LeakyReLU(negative_slope=0.2, inplace=True)
          )
        )
      )
      (17): FlowStep(
        (actnorm): ActNorm2d()
        (affine): AffineCoupling3shift(
          (f): DenseBlock(
            (conv1): Conv2d(3, 32, kernel_size=(3, 3), stride=(1, 1), padding=(1, 1))
            (conv2): Conv2d(35, 32, kernel_size=(3, 3), stride=(1, 1), padding=(1, 1))
            (conv3): Conv2d(67, 32, kernel_size=(3, 3), stride=(1, 1), padding=(1, 1))
            (conv4): Conv2d(99, 32, kernel_size=(3, 3), stride=(1, 1), padding=(1, 1))
            (conv5): Conv2d(131, 42, kernel_size=(3, 3), stride=(1, 1), padding=(1, 1))
            (lrelu): LeakyReLU(negative_slope=0.2, inplace=True)
          )
        )
      )
      (18): FlowStep(
        (actnorm): ActNorm2d()
        (affine): AffineCoupling3shift(
          (f): DenseBlock(
            (conv1): Conv2d(21, 32, kernel_size=(3, 3), stride=(1, 1), padding=(1, 1))
            (conv2): Conv2d(53, 32, kernel_size=(3, 3), stride=(1, 1), padding=(1, 1))
            (conv3): Conv2d(85, 32, kernel_size=(3, 3), stride=(1, 1), padding=(1, 1))
            (conv4): Conv2d(117, 32, kernel_size=(3, 3), stride=(1, 1), padding=(1, 1))
            (conv5): Conv2d(149, 3, kernel_size=(3, 3), stride=(1, 1), padding=(1, 1))
            (lrelu): LeakyReLU(negative_slope=0.2, inplace=True)
          )
        )
      )
      (19): Split()
    )
    (level0_condFlow): ConditionalFlow(
      (conv_first): Conv2d(70, 64, kernel_size=(3, 3), stride=(1, 1), padding=(1, 1))
      (RRDB_trunk0): Sequential(
        (0): RRDB(
          (RDB1): ResidualDenseBlock(
            (conv1): Conv2d(64, 16, kernel_size=(3, 3), stride=(1, 1), padding=(1, 1))
            (conv2): Conv2d(80, 16, kernel_size=(3, 3), stride=(1, 1), padding=(1, 1))
            (conv3): Conv2d(96, 16, kernel_size=(3, 3), stride=(1, 1), padding=(1, 1))
            (conv4): Conv2d(112, 16, kernel_size=(3, 3), stride=(1, 1), padding=(1, 1))
            (conv5): Conv2d(128, 64, kernel_size=(3, 3), stride=(1, 1), padding=(1, 1))
            (lrelu): LeakyReLU(negative_slope=0.2, inplace=True)
          )
          (RDB2): ResidualDenseBlock(
            (conv1): Conv2d(64, 16, kernel_size=(3, 3), stride=(1, 1), padding=(1, 1))
            (conv2): Conv2d(80, 16, kernel_size=(3, 3), stride=(1, 1), padding=(1, 1))
            (conv3): Conv2d(96, 16, kernel_size=(3, 3), stride=(1, 1), padding=(1, 1))
            (conv4): Conv2d(112, 16, kernel_size=(3, 3), stride=(1, 1), padding=(1, 1))
            (conv5): Conv2d(128, 64, kernel_size=(3, 3), stride=(1, 1), padding=(1, 1))
            (lrelu): LeakyReLU(negative_slope=0.2, inplace=True)
          )
          (RDB3): ResidualDenseBlock(
            (conv1): Conv2d(64, 16, kernel_size=(3, 3), stride=(1, 1), padding=(1, 1))
            (conv2): Conv2d(80, 16, kernel_size=(3, 3), stride=(1, 1), padding=(1, 1))
            (conv3): Conv2d(96, 16, kernel_size=(3, 3), stride=(1, 1), padding=(1, 1))
            (conv4): Conv2d(112, 16, kernel_size=(3, 3), stride=(1, 1), padding=(1, 1))
            (conv5): Conv2d(128, 64, kernel_size=(3, 3), stride=(1, 1), padding=(1, 1))
            (lrelu): LeakyReLU(negative_slope=0.2, inplace=True)
          )
        )
        (1): RRDB(
          (RDB1): ResidualDenseBlock(
            (conv1): Conv2d(64, 16, kernel_size=(3, 3), stride=(1, 1), padding=(1, 1))
            (conv2): Conv2d(80, 16, kernel_size=(3, 3), stride=(1, 1), padding=(1, 1))
            (conv3): Conv2d(96, 16, kernel_size=(3, 3), stride=(1, 1), padding=(1, 1))
            (conv4): Conv2d(112, 16, kernel_size=(3, 3), stride=(1, 1), padding=(1, 1))
            (conv5): Conv2d(128, 64, kernel_size=(3, 3), stride=(1, 1), padding=(1, 1))
            (lrelu): LeakyReLU(negative_slope=0.2, inplace=True)
          )
          (RDB2): ResidualDenseBlock(
            (conv1): Conv2d(64, 16, kernel_size=(3, 3), stride=(1, 1), padding=(1, 1))
            (conv2): Conv2d(80, 16, kernel_size=(3, 3), stride=(1, 1), padding=(1, 1))
            (conv3): Conv2d(96, 16, kernel_size=(3, 3), stride=(1, 1), padding=(1, 1))
            (conv4): Conv2d(112, 16, kernel_size=(3, 3), stride=(1, 1), padding=(1, 1))
            (conv5): Conv2d(128, 64, kernel_size=(3, 3), stride=(1, 1), padding=(1, 1))
            (lrelu): LeakyReLU(negative_slope=0.2, inplace=True)
          )
          (RDB3): ResidualDenseBlock(
            (conv1): Conv2d(64, 16, kernel_size=(3, 3), stride=(1, 1), padding=(1, 1))
            (conv2): Conv2d(80, 16, kernel_size=(3, 3), stride=(1, 1), padding=(1, 1))
            (conv3): Conv2d(96, 16, kernel_size=(3, 3), stride=(1, 1), padding=(1, 1))
            (conv4): Conv2d(112, 16, kernel_size=(3, 3), stride=(1, 1), padding=(1, 1))
            (conv5): Conv2d(128, 64, kernel_size=(3, 3), stride=(1, 1), padding=(1, 1))
            (lrelu): LeakyReLU(negative_slope=0.2, inplace=True)
          )
        )
      )
      (RRDB_trunk1): Sequential(
        (0): RRDB(
          (RDB1): ResidualDenseBlock(
            (conv1): Conv2d(64, 16, kernel_size=(3, 3), stride=(1, 1), padding=(1, 1))
            (conv2): Conv2d(80, 16, kernel_size=(3, 3), stride=(1, 1), padding=(1, 1))
            (conv3): Conv2d(96, 16, kernel_size=(3, 3), stride=(1, 1), padding=(1, 1))
            (conv4): Conv2d(112, 16, kernel_size=(3, 3), stride=(1, 1), padding=(1, 1))
            (conv5): Conv2d(128, 64, kernel_size=(3, 3), stride=(1, 1), padding=(1, 1))
            (lrelu): LeakyReLU(negative_slope=0.2, inplace=True)
          )
          (RDB2): ResidualDenseBlock(
            (conv1): Conv2d(64, 16, kernel_size=(3, 3), stride=(1, 1), padding=(1, 1))
            (conv2): Conv2d(80, 16, kernel_size=(3, 3), stride=(1, 1), padding=(1, 1))
            (conv3): Conv2d(96, 16, kernel_size=(3, 3), stride=(1, 1), padding=(1, 1))
            (conv4): Conv2d(112, 16, kernel_size=(3, 3), stride=(1, 1), padding=(1, 1))
            (conv5): Conv2d(128, 64, kernel_size=(3, 3), stride=(1, 1), padding=(1, 1))
            (lrelu): LeakyReLU(negative_slope=0.2, inplace=True)
          )
          (RDB3): ResidualDenseBlock(
            (conv1): Conv2d(64, 16, kernel_size=(3, 3), stride=(1, 1), padding=(1, 1))
            (conv2): Conv2d(80, 16, kernel_size=(3, 3), stride=(1, 1), padding=(1, 1))
            (conv3): Conv2d(96, 16, kernel_size=(3, 3), stride=(1, 1), padding=(1, 1))
            (conv4): Conv2d(112, 16, kernel_size=(3, 3), stride=(1, 1), padding=(1, 1))
            (conv5): Conv2d(128, 64, kernel_size=(3, 3), stride=(1, 1), padding=(1, 1))
            (lrelu): LeakyReLU(negative_slope=0.2, inplace=True)
          )
        )
      )
      (trunk_conv1): Conv2d(64, 64, kernel_size=(3, 3), stride=(1, 1), padding=(1, 1))
      (additional_flow_steps): ModuleList(
        (0): FlowStep(
          (actnorm): ActNorm2d()
          (permute): InvertibleConv1x1()
          (affine): AffineCoupling(
            (f): FCN(
              (conv1): Conv2d(
                67, 64, kernel_size=(3, 3), stride=(1, 1), padding=(1, 1), bias=False
                (actnorm): ActNorm2d()
              )
              (conv2): Conv2d(
                64, 64, kernel_size=(1, 1), stride=(1, 1), bias=False
                (actnorm): ActNorm2d()
              )
              (conv3): Conv2dZeros(64, 6, kernel_size=(3, 3), stride=(1, 1), padding=(1, 1))
              (relu): ReLU()
            )
          )
        )
        (1): FlowStep(
          (actnorm): ActNorm2d()
          (permute): InvertibleConv1x1()
          (affine): AffineCoupling(
            (f): FCN(
              (conv1): Conv2d(
                67, 64, kernel_size=(3, 3), stride=(1, 1), padding=(1, 1), bias=False
                (actnorm): ActNorm2d()
              )
              (conv2): Conv2d(
                64, 64, kernel_size=(1, 1), stride=(1, 1), bias=False
                (actnorm): ActNorm2d()
              )
              (conv3): Conv2dZeros(64, 6, kernel_size=(3, 3), stride=(1, 1), padding=(1, 1))
              (relu): ReLU()
            )
          )
        )
        (2): FlowStep(
          (actnorm): ActNorm2d()
          (permute): InvertibleConv1x1()
          (affine): AffineCoupling(
            (f): FCN(
              (conv1): Conv2d(
                67, 64, kernel_size=(3, 3), stride=(1, 1), padding=(1, 1), bias=False
                (actnorm): ActNorm2d()
              )
              (conv2): Conv2d(
                64, 64, kernel_size=(1, 1), stride=(1, 1), bias=False
                (actnorm): ActNorm2d()
              )
              (conv3): Conv2dZeros(64, 6, kernel_size=(3, 3), stride=(1, 1), padding=(1, 1))
              (relu): ReLU()
            )
          )
        )
        (3): FlowStep(
          (actnorm): ActNorm2d()
          (permute): InvertibleConv1x1()
          (affine): AffineCoupling(
            (f): FCN(
              (conv1): Conv2d(
                67, 64, kernel_size=(3, 3), stride=(1, 1), padding=(1, 1), bias=False
                (actnorm): ActNorm2d()
              )
              (conv2): Conv2d(
                64, 64, kernel_size=(1, 1), stride=(1, 1), bias=False
                (actnorm): ActNorm2d()
              )
              (conv3): Conv2dZeros(64, 6, kernel_size=(3, 3), stride=(1, 1), padding=(1, 1))
              (relu): ReLU()
            )
          )
        )
        (4): FlowStep(
          (actnorm): ActNorm2d()
          (permute): InvertibleConv1x1()
          (affine): AffineCoupling(
            (f): FCN(
              (conv1): Conv2d(
                67, 64, kernel_size=(3, 3), stride=(1, 1), padding=(1, 1), bias=False
                (actnorm): ActNorm2d()
              )
              (conv2): Conv2d(
                64, 64, kernel_size=(1, 1), stride=(1, 1), bias=False
                (actnorm): ActNorm2d()
              )
              (conv3): Conv2dZeros(64, 6, kernel_size=(3, 3), stride=(1, 1), padding=(1, 1))
              (relu): ReLU()
            )
          )
        )
        (5): FlowStep(
          (actnorm): ActNorm2d()
          (permute): InvertibleConv1x1()
          (affine): AffineCoupling(
            (f): FCN(
              (conv1): Conv2d(
                67, 64, kernel_size=(3, 3), stride=(1, 1), padding=(1, 1), bias=False
                (actnorm): ActNorm2d()
              )
              (conv2): Conv2d(
                64, 64, kernel_size=(1, 1), stride=(1, 1), bias=False
                (actnorm): ActNorm2d()
              )
              (conv3): Conv2dZeros(64, 6, kernel_size=(3, 3), stride=(1, 1), padding=(1, 1))
              (relu): ReLU()
            )
          )
        )
      )
      (f): Conv2dZeros(64, 12, kernel_size=(3, 3), stride=(1, 1), padding=(1, 1))
    )
    (level1_condFlow): ConditionalFlow(
      (conv_first): Conv2d(3, 64, kernel_size=(3, 3), stride=(1, 1), padding=(1, 1))
      (RRDB_trunk0): Sequential(
        (0): RRDB(
          (RDB1): ResidualDenseBlock(
            (conv1): Conv2d(64, 16, kernel_size=(3, 3), stride=(1, 1), padding=(1, 1))
            (conv2): Conv2d(80, 16, kernel_size=(3, 3), stride=(1, 1), padding=(1, 1))
            (conv3): Conv2d(96, 16, kernel_size=(3, 3), stride=(1, 1), padding=(1, 1))
            (conv4): Conv2d(112, 16, kernel_size=(3, 3), stride=(1, 1), padding=(1, 1))
            (conv5): Conv2d(128, 64, kernel_size=(3, 3), stride=(1, 1), padding=(1, 1))
            (lrelu): LeakyReLU(negative_slope=0.2, inplace=True)
          )
          (RDB2): ResidualDenseBlock(
            (conv1): Conv2d(64, 16, kernel_size=(3, 3), stride=(1, 1), padding=(1, 1))
            (conv2): Conv2d(80, 16, kernel_size=(3, 3), stride=(1, 1), padding=(1, 1))
            (conv3): Conv2d(96, 16, kernel_size=(3, 3), stride=(1, 1), padding=(1, 1))
            (conv4): Conv2d(112, 16, kernel_size=(3, 3), stride=(1, 1), padding=(1, 1))
            (conv5): Conv2d(128, 64, kernel_size=(3, 3), stride=(1, 1), padding=(1, 1))
            (lrelu): LeakyReLU(negative_slope=0.2, inplace=True)
          )
          (RDB3): ResidualDenseBlock(
            (conv1): Conv2d(64, 16, kernel_size=(3, 3), stride=(1, 1), padding=(1, 1))
            (conv2): Conv2d(80, 16, kernel_size=(3, 3), stride=(1, 1), padding=(1, 1))
            (conv3): Conv2d(96, 16, kernel_size=(3, 3), stride=(1, 1), padding=(1, 1))
            (conv4): Conv2d(112, 16, kernel_size=(3, 3), stride=(1, 1), padding=(1, 1))
            (conv5): Conv2d(128, 64, kernel_size=(3, 3), stride=(1, 1), padding=(1, 1))
            (lrelu): LeakyReLU(negative_slope=0.2, inplace=True)
          )
        )
        (1): RRDB(
          (RDB1): ResidualDenseBlock(
            (conv1): Conv2d(64, 16, kernel_size=(3, 3), stride=(1, 1), padding=(1, 1))
            (conv2): Conv2d(80, 16, kernel_size=(3, 3), stride=(1, 1), padding=(1, 1))
            (conv3): Conv2d(96, 16, kernel_size=(3, 3), stride=(1, 1), padding=(1, 1))
            (conv4): Conv2d(112, 16, kernel_size=(3, 3), stride=(1, 1), padding=(1, 1))
            (conv5): Conv2d(128, 64, kernel_size=(3, 3), stride=(1, 1), padding=(1, 1))
            (lrelu): LeakyReLU(negative_slope=0.2, inplace=True)
          )
          (RDB2): ResidualDenseBlock(
            (conv1): Conv2d(64, 16, kernel_size=(3, 3), stride=(1, 1), padding=(1, 1))
            (conv2): Conv2d(80, 16, kernel_size=(3, 3), stride=(1, 1), padding=(1, 1))
            (conv3): Conv2d(96, 16, kernel_size=(3, 3), stride=(1, 1), padding=(1, 1))
            (conv4): Conv2d(112, 16, kernel_size=(3, 3), stride=(1, 1), padding=(1, 1))
            (conv5): Conv2d(128, 64, kernel_size=(3, 3), stride=(1, 1), padding=(1, 1))
            (lrelu): LeakyReLU(negative_slope=0.2, inplace=True)
          )
          (RDB3): ResidualDenseBlock(
            (conv1): Conv2d(64, 16, kernel_size=(3, 3), stride=(1, 1), padding=(1, 1))
            (conv2): Conv2d(80, 16, kernel_size=(3, 3), stride=(1, 1), padding=(1, 1))
            (conv3): Conv2d(96, 16, kernel_size=(3, 3), stride=(1, 1), padding=(1, 1))
            (conv4): Conv2d(112, 16, kernel_size=(3, 3), stride=(1, 1), padding=(1, 1))
            (conv5): Conv2d(128, 64, kernel_size=(3, 3), stride=(1, 1), padding=(1, 1))
            (lrelu): LeakyReLU(negative_slope=0.2, inplace=True)
          )
        )
      )
      (RRDB_trunk1): Sequential(
        (0): RRDB(
          (RDB1): ResidualDenseBlock(
            (conv1): Conv2d(64, 16, kernel_size=(3, 3), stride=(1, 1), padding=(1, 1))
            (conv2): Conv2d(80, 16, kernel_size=(3, 3), stride=(1, 1), padding=(1, 1))
            (conv3): Conv2d(96, 16, kernel_size=(3, 3), stride=(1, 1), padding=(1, 1))
            (conv4): Conv2d(112, 16, kernel_size=(3, 3), stride=(1, 1), padding=(1, 1))
            (conv5): Conv2d(128, 64, kernel_size=(3, 3), stride=(1, 1), padding=(1, 1))
            (lrelu): LeakyReLU(negative_slope=0.2, inplace=True)
          )
          (RDB2): ResidualDenseBlock(
            (conv1): Conv2d(64, 16, kernel_size=(3, 3), stride=(1, 1), padding=(1, 1))
            (conv2): Conv2d(80, 16, kernel_size=(3, 3), stride=(1, 1), padding=(1, 1))
            (conv3): Conv2d(96, 16, kernel_size=(3, 3), stride=(1, 1), padding=(1, 1))
            (conv4): Conv2d(112, 16, kernel_size=(3, 3), stride=(1, 1), padding=(1, 1))
            (conv5): Conv2d(128, 64, kernel_size=(3, 3), stride=(1, 1), padding=(1, 1))
            (lrelu): LeakyReLU(negative_slope=0.2, inplace=True)
          )
          (RDB3): ResidualDenseBlock(
            (conv1): Conv2d(64, 16, kernel_size=(3, 3), stride=(1, 1), padding=(1, 1))
            (conv2): Conv2d(80, 16, kernel_size=(3, 3), stride=(1, 1), padding=(1, 1))
            (conv3): Conv2d(96, 16, kernel_size=(3, 3), stride=(1, 1), padding=(1, 1))
            (conv4): Conv2d(112, 16, kernel_size=(3, 3), stride=(1, 1), padding=(1, 1))
            (conv5): Conv2d(128, 64, kernel_size=(3, 3), stride=(1, 1), padding=(1, 1))
            (lrelu): LeakyReLU(negative_slope=0.2, inplace=True)
          )
        )
      )
      (trunk_conv1): Conv2d(64, 64, kernel_size=(3, 3), stride=(1, 1), padding=(1, 1))
      (additional_flow_steps): ModuleList(
        (0): FlowStep(
          (actnorm): ActNorm2d()
          (permute): InvertibleConv1x1()
          (affine): AffineCoupling(
            (f): FCN(
              (conv1): Conv2d(
                74, 64, kernel_size=(3, 3), stride=(1, 1), padding=(1, 1), bias=False
                (actnorm): ActNorm2d()
              )
              (conv2): Conv2d(
                64, 64, kernel_size=(1, 1), stride=(1, 1), bias=False
                (actnorm): ActNorm2d()
              )
              (conv3): Conv2dZeros(64, 22, kernel_size=(3, 3), stride=(1, 1), padding=(1, 1))
              (relu): ReLU()
            )
          )
        )
        (1): FlowStep(
          (actnorm): ActNorm2d()
          (permute): InvertibleConv1x1()
          (affine): AffineCoupling(
            (f): FCN(
              (conv1): Conv2d(
                74, 64, kernel_size=(3, 3), stride=(1, 1), padding=(1, 1), bias=False
                (actnorm): ActNorm2d()
              )
              (conv2): Conv2d(
                64, 64, kernel_size=(1, 1), stride=(1, 1), bias=False
                (actnorm): ActNorm2d()
              )
              (conv3): Conv2dZeros(64, 22, kernel_size=(3, 3), stride=(1, 1), padding=(1, 1))
              (relu): ReLU()
            )
          )
        )
        (2): FlowStep(
          (actnorm): ActNorm2d()
          (permute): InvertibleConv1x1()
          (affine): AffineCoupling(
            (f): FCN(
              (conv1): Conv2d(
                74, 64, kernel_size=(3, 3), stride=(1, 1), padding=(1, 1), bias=False
                (actnorm): ActNorm2d()
              )
              (conv2): Conv2d(
                64, 64, kernel_size=(1, 1), stride=(1, 1), bias=False
                (actnorm): ActNorm2d()
              )
              (conv3): Conv2dZeros(64, 22, kernel_size=(3, 3), stride=(1, 1), padding=(1, 1))
              (relu): ReLU()
            )
          )
        )
        (3): FlowStep(
          (actnorm): ActNorm2d()
          (permute): InvertibleConv1x1()
          (affine): AffineCoupling(
            (f): FCN(
              (conv1): Conv2d(
                74, 64, kernel_size=(3, 3), stride=(1, 1), padding=(1, 1), bias=False
                (actnorm): ActNorm2d()
              )
              (conv2): Conv2d(
                64, 64, kernel_size=(1, 1), stride=(1, 1), bias=False
                (actnorm): ActNorm2d()
              )
              (conv3): Conv2dZeros(64, 22, kernel_size=(3, 3), stride=(1, 1), padding=(1, 1))
              (relu): ReLU()
            )
          )
        )
        (4): FlowStep(
          (actnorm): ActNorm2d()
          (permute): InvertibleConv1x1()
          (affine): AffineCoupling(
            (f): FCN(
              (conv1): Conv2d(
                74, 64, kernel_size=(3, 3), stride=(1, 1), padding=(1, 1), bias=False
                (actnorm): ActNorm2d()
              )
              (conv2): Conv2d(
                64, 64, kernel_size=(1, 1), stride=(1, 1), bias=False
                (actnorm): ActNorm2d()
              )
              (conv3): Conv2dZeros(64, 22, kernel_size=(3, 3), stride=(1, 1), padding=(1, 1))
              (relu): ReLU()
            )
          )
        )
        (5): FlowStep(
          (actnorm): ActNorm2d()
          (permute): InvertibleConv1x1()
          (affine): AffineCoupling(
            (f): FCN(
              (conv1): Conv2d(
                74, 64, kernel_size=(3, 3), stride=(1, 1), padding=(1, 1), bias=False
                (actnorm): ActNorm2d()
              )
              (conv2): Conv2d(
                64, 64, kernel_size=(1, 1), stride=(1, 1), bias=False
                (actnorm): ActNorm2d()
              )
              (conv3): Conv2dZeros(64, 22, kernel_size=(3, 3), stride=(1, 1), padding=(1, 1))
              (relu): ReLU()
            )
          )
        )
      )
      (f): Conv2dZeros(64, 42, kernel_size=(3, 3), stride=(1, 1), padding=(1, 1))
    )
  )
)
23-12-22 01:51:43.433 - INFO: Loading model for G [../experiments/pretrained_models/Rescaling_DF2K_X4_HCFlow.pth] ...
…
